IN/best_model_IN-Copy1.pkl (torch, 114828 bytes, 9 tensors)

weight f4 [64, 5]
0	0x3e566c53	0.2093976
1	0x3e9f3cd9	0.3110111
2	0x3d929613	0.07157531
3	0xbe300e5b	-0.17192976
4	0x3e1ab854	0.15109378
5	0x3e2637a5	0.16232164
6	0x3dad3d69	0.08458979
7	0xbe076103	-0.13220601
8	0xbe84f632	-0.25969082
9	0x3ed26e93	0.41099986
10	0x3ddd5bd5	0.10808531
11	0xbeeafdcc	-0.45896757
12	0xbe180bdf	-0.14848278
13	0x3d159914	0.03652294
14	0xbce06b31	-0.027394863
15	0xbe93e54e	-0.28885883
16	0x3d3b51f6	0.04573246
17	0xbeb6e53e	-0.35721773
18	0xbe85790b	-0.2606891
19	0x3dfd0ac8	0.12355572
20	0xbcf55077	-0.029945595
21	0xbe67c211	-0.22632624
22	0x3dbe4f78	0.09292501
23	0xbd2278ea	-0.039666094
24	0x3e5302bc	0.20606512
25	0x3eaf5256	0.34242505
26	0xbbbd2ea3	-0.005773382
27	0x3e551eb8	0.208125
28	0x3e610d97	0.2197784
29	0x3db086b1	0.0861944
30	0x3e268238	0.16260612
31	0xbeea0991	-0.45710424
32	0x3ea7a460	0.32742596
33	0xbe595683	-0.21224408
34	0xbc9f73fb	-0.019464483
35	0xbebfebfa	-0.37484723
36	0x3ce68e52	0.028144035
37	0x3dda7787	0.10667329
38	0x3e645298	0.22297132
39	0xbeeaa2c1	-0.45827296
40	0x3ea10635	0.31450048
41	0xbeb71492	-0.3575788
42	0xbea5c976	-0.32380265
43	0xbeb8febf	-0.36131856
44	0xbe99a3d3	-0.300078
45	0xbed396f0	-0.41326094
46	0xbeb29e20	-0.34886265
47	0xbec5e751	-0.38653043
48	0xbe893c51	-0.2680383
49	0xbeabd063	-0.33557424
50	0xbe5103a9	-0.20411552
51	0xbd8493d2	-0.06473507
52	0xbe47a958	-0.19498193
53	0x3e0d0e61	0.13775016
54	0x3ee05d9d	0.4382142
55	0xbe764b6e	-0.24052212
56	0x3ecf26af	0.404592
57	0xbecdd24e	-0.40199512
58	0xbeb3261b	-0.3499001
59	0xbecb5865	-0.39715877
60	0x3e6d4ab7	0.23173033
61	0x3e25acfb	0.16179268
62	0xbe798806	-0.24368295
63	0xbdec8ea0	-0.11550641
64	0xbebb6aa1	-0.3660479
65	0xbe3c6c40	-0.18400669
66	0xbe04c5ec	-0.12966126
67	0x3dd97146	0.10617308
68	0x3e47efd9	0.19525088
69	0xbe0ce994	-0.13760978
70	0xbedc48b5	-0.4302422
71	0x3dcd9b5f	0.100394
72	0xbe7fd592	-0.24983814
73	0x3e26c1d1	0.16284873
74	0xbd99c795	-0.075087704
75	0x3eb9f27f	0.36317822
76	0xbd433d29	-0.04766575
77	0x3e56a7d2	0.20962456
78	0xbd02c8fd	-0.03192996
79	0xbead1002	-0.33801275
80	0xbed206c2	-0.4102078
81	0x3db44822	0.08802821
82	0x3e50db81	0.20396234
83	0x3e080ddd	0.13286538
84	0xbcd9fadc	-0.026608877
85	0xbe085819	-0.13314857
86	0x3ecb19fa	0.39668256
87	0xbe8a6959	-0.270335
88	0xbeb675a9	-0.35636643
89	0x3e9531f4	0.29139674
90	0x3d3c70d1	0.046006028
91	0xbcdeb135	-0.027184108
92	0xbe67de37	-0.22643362
93	0xbdfbec6d	-0.12300954
94	0x3db79046	0.08963065
95	0x3ec6506a	0.38733226
96	0x3e4d3bd8	0.2004236
97	0x3ee1631c	0.44020927
98	0xbe4095ad	-0.18807097
99	0xbed7c9c2	-0.42146116
100	0xbe84d74d	-0.2594551
101	0xbe03e6de	-0.12881038
102	0xbea096de	-0.31365103
103	0x3e8063b8	0.2507608
104	0xbedafef2	-0.42772633
105	0xbe2cf46c	-0.16890115
106	0x3e2052a6	0.15656528
107	0x3c427d74	0.011870731
108	0x3ebb1437	0.3653886
109	0x3ed80b00	0.42195892
110	0xbd782381	-0.060580734
111	0x3e011c96	0.12608561
112	0xbea2abb4	-0.31771624
113	0xbea21c3f	-0.31662175
114	0xbe445c45	-0.19175823
115	0x3e9716df	0.29509637
116	0x3dbca824	0.09211758
117	0xbea89a64	-0.3293029
118	0x3e542911	0.2071879
119	0x3e717606	0.23580179
120	0x3ea5ae5d	0.3235959
121	0x3dfe3c51	0.12413848
122	0x3b30c8ad	0.002697508
123	0x3ecc1695	0.3986098
124	0x3da89b3a	0.08232732
125	0xbd903f52	-0.070433274
126	0xbe8164ad	-0.25272122
127	0x3da0fd99	0.0786087
128	0x3e3b034b	0.18262975
129	0x3ec42f51	0.3831735
130	0xbd9c611b	-0.07635709
131	0xbeab782f	-0.3349013
132	0xbe3822e7	-0.17982064
133	0xbea46512	-0.3210836
134	0x3e72d2d4	0.23713237
135	0x3d1f5795	0.038901884
136	0xbe84b583	-0.25919732
137	0x3e45a6f6	0.19301972
138	0x3e6de1e7	0.23230706
139	0x3e067585	0.13130768
140	0x3e7dda3b	0.2479028
141	0xbea374bc	-0.31925
142	0x3eb5c158	0.35499072
143	0xbdb8613b	-0.0900292
144	0xbe92385a	-0.28558618
145	0x3d22dbe1	0.039760474
146	0x3c2398dd	0.009985176
147	0xbea13454	-0.31485236
148	0xbd3abab2	-0.045588203
149	0x3e4bd72c	0.199063
150	0x3d1f9c3d	0.03896736
151	0xbe511569	-0.20418324
152	0xbe9c4b05	-0.30525985
153	0x3d1f162f	0.038839515
154	0xbcb98dbe	-0.022650596
155	0xbea7bb8e	-0.3276028
156	0xbe2b1eac	-0.16710919
157	0xbe9e4619	-0.30912855
158	0xbd4a608a	-0.049408473
159	0x3ea7ad32	0.32749325
160	0x3ebc62fb	0.36794266
161	0xbd83a6a5	-0.06428269
162	0x3e821e3e	0.25413698
163	0xbece9d6b	-0.40354475
164	0xbe8d9370	-0.27651548
165	0x3dfd93a7	0.12381678
166	0xbeeebb8a	-0.46627456
167	0xbde14b71	-0.110007174
168	0x3e7831ad	0.242377
169	0xbe7ae7b3	-0.24502449
170	0x3e4e7e24	0.20165306
171	0xbc6630be	-0.014049707
172	0xbeaba25c	-0.33522308
173	0x3e006af6	0.12540802
174	0xbeba4d2d	-0.36387005
175	0x3e0047d5	0.12527402
176	0x3f09f202	0.538849
177	0xbe84a0ca	-0.25903922
178	0xbc626101	-0.013817073
179	0x3ea94cee	0.33066505
180	0xbde23826	-0.11045866
181	0xbead3076	-0.33826035
182	0xbebec72b	-0.37261328
183	0xbefd400b	-0.49462923
184	0xbd9c7fce	-0.07641564
185	0xbee01cc8	-0.43771958
186	0xbeb76cdb	-0.35825238
187	0x3df8c289	0.1214648
188	0x3e1e411c	0.15454525
189	0xbe8e83bd	-0.27834883
190	0xbdc9cd54	-0.09853616
191	0xbc368879	-0.011140936
192	0xbe7045a2	-0.23464063
193	0x3e026cd4	0.12736827
194	0x3dc01ed3	0.09380879
195	0x3e7e94b4	0.24861413
196	0xbe026150	-0.12732434
197	0xbe00f75a	-0.12594357
198	0xbd89131b	-0.06693097
199	0xbc81aa65	-0.01582832
200	0x3bdd2cd1	0.0067497273
201	0xbe71b7ba	-0.23605242
202	0xbded2e4a	-0.115810946
203	0xbcc28235	-0.023743728
204	0xbe03f273	-0.12885456
205	0xbc5c004b	-0.013427804
206	0xbe3556a2	-0.17708829
207	0x3ed65e76	0.41868943
208	0xbda50eec	-0.08059487
209	0xbee4f3ed	-0.4471735
210	0xbe7ee028	-0.24890196
211	0xbe8e7902	-0.27826697
212	0xbe992109	-0.29908016
213	0xbef787cd	-0.48345795
214	0x3f0c7f83	0.5488207
215	0xbe5f9cbd	-0.21837135
216	0x3e03938b	0.12849252
217	0x3d976652	0.07392563
218	0xbee0c8ad	-0.43903103
219	0xbda36deb	-0.079799496
220	0x3e3284b5	0.17433436
221	0xbe90c99e	-0.28278822
222	0x3ec1a909	0.37824276
223	0xbdc3be13	-0.09557738
224	0xbe75c830	-0.24002147
225	0xbec4f8e8	-0.3847115
226	0x3c905d16	0.017622512
227	0xbe653fc8	-0.22387612
228	0xbed30872	-0.4121738
229	0xbcfaec99	-0.030630397
230	0xbe6dfe0c	-0.23241442
231	0x3e34ebaa	0.17668024
232	0xbe7ff276	-0.24994835
233	0xbeecb141	-0.46228984
234	0x3ba7011a	0.005096567
235	0xbea05e37	-0.3132188
236	0xbec625a5	-0.38700595
237	0x3ed85cbb	0.42258248
238	0xbddd2c00	-0.10799408
239	0x3c430972	0.011904107
240	0xbea2bc56	-0.31784314
241	0xbec51018	-0.3848884
242	0x3d7e1961	0.062035922
243	0x3daa5a23	0.083179735
244	0x3c11ed1b	0.008906628
245	0x3e31e467	0.17372285
246	0xbb8ffc5e	-0.004394098
247	0xbe4de08e	-0.20105192
248	0xbeb0de8c	-0.3454479
249	0xbd1ffb5d	-0.039058078
250	0xbecc4055	-0.3989283
251	0x3ec3315f	0.38123605
252	0xbec63224	-0.3871013
253	0xbe5e92dd	-0.21735711
254	0x3db16f3d	0.08663795
255	0xbe5a02fc	-0.21290201

bias f4 [64]
0	0xbd83d623	-0.06437328
1	0xbe0f6300	-0.14002609
2	0x3e942c7c	0.2894019
3	0xbec838d9	-0.3910587
4	0x3ee18c97	0.44052574
5	0x3eb9c320	0.3628168
6	0x3ec991f6	0.39369172
7	0xbed20699	-0.4102066
8	0xbe8599bc	-0.26093853
9	0x3e90bd92	0.2826963
10	0xbe92b882	-0.28656393
11	0xbe67ed81	-0.22649194
12	0xbea0924b	-0.31361613
13	0x3e34638b	0.17616098
14	0xbec4df33	-0.38451537
15	0xbe8f4623	-0.27983198
16	0x3d16e753	0.0368417
17	0xbe7b4519	-0.24538077
18	0xbd981f2e	-0.07427822
19	0xbeda2996	-0.42609853
20	0x3ea10e0c	0.3145603
21	0x3ee900a9	0.45508316
22	0xbedb223f	-0.42799565
23	0x3ea46c28	0.32113767
24	0x3e73ea2f	0.23819803
25	0x3e3cbf4e	0.18432352
26	0xbe702a74	-0.23453695
27	0x3ebf10a3	0.3731738
28	0xbec17b08	-0.37789178
29	0xbe4b4f45	-0.19854458
30	0x3e065fb0	0.1312244
31	0x3e208905	0.15677269
32	0x3e878748	0.264704
33	0xbdee52da	-0.116368964
34	0x3ed90bc9	0.42391804
35	0x3eb68513	0.35648403
36	0xbecb1b47	-0.39669248
37	0xbeea3d87	-0.45750067
38	0x3ec3a175	0.3820912
39	0xbd9013b5	-0.07035009
40	0x3eaef375	0.34170118
41	0xbd6fb07f	-0.05851793
42	0xbe908972	-0.28229862
43	0xbdfd5292	-0.12369265
44	0x3e9d6710	0.30742693
45	0x3eb78bf0	0.3584895
46	0xbd38bb51	-0.045100514
47	0x3eb97339	0.3622072
48	0xbd465f7d	-0.04843091
49	0xbd984845	-0.07435659
50	0x3edb1272	0.4278751
51	0x3e8e769a	0.2782486
52	0xbeb79e2a	-0.35862857
53	0x3ea9d88f	0.33173034
54	0xbe2db77f	-0.1696453
55	0x3cc161d6	0.023606222
56	0xbe235ccb	-0.15953366
57	0x3eb5cec7	0.3550932
58	0xbed572b2	-0.41689068
59	0x3eb786dc	0.35845077
60	0xbe5f1a89	-0.21787466
61	0x3ebdb1d0	0.37049723
62	0xbe40c337	-0.18824469
63	0x3debff58	0.11523312

weight f4 [64, 138]
0	0x3e74fedd	0.23925348
1	0x3e075f67	0.13219987
2	0xbe8e9219	-0.2784584
3	0xbdac0b5e	-0.084006056
4	0x3e6680d3	0.2251008
5	0x3ebd35f5	0.36955228
6	0x3e9cfa07	0.30659506
7	0xbe84218b	-0.2580684
8	0x3dc163b5	0.09442846
9	0x3e6dfc98	0.23240888
10	0x3d132279	0.035921548
11	0xbe77f488	-0.24214375
12	0xbd059847	-0.032615926
13	0x3df7d1f8	0.12100595
14	0x3e0b1abe	0.1358442
15	0x3e9f3c53	0.3110071
16	0x3d9cd96b	0.07658657
17	0x3d16ed6a	0.03684751
18	0xbe935ca2	-0.2878161
19	0x3e673b60	0.22581244
20	0xbe313301	-0.17304613
21	0xbe6547b7	-0.22390638
22	0x3e65c94b	0.22440068
23	0x3e67c9ce	0.22635576
24	0xbdf2c0fc	-0.11853215
25	0x3de56809	0.11201484
26	0x3ea06fd9	0.31335333
27	0xbd72b0f3	-0.059250783
28	0xbe74aa25	-0.2389303
29	0x3e6e6dc9	0.23284067
30	0xbde5c1e9	-0.11218626
31	0x3e8bdb0c	0.27315557
32	0x3d5e02b7	0.054201808
33	0xbde02fba	-0.10946603
34	0x3cec7fe5	0.028869579
35	0xbe38f3d6	-0.18061766
36	0x3d43a9f3	0.047769498
37	0xbd44df3f	-0.048064467
38	0x3d30121a	0.042986013
39	0xbce5d680	-0.028056383
40	0x3df7ae20	0.120937586
41	0x3da83f85	0.082152404
42	0x3ea16acd	0.31526795
43	0x3eb09a01	0.34492496
44	0xbeb1181a	-0.345887
45	0x3e0bd75c	0.13656372
46	0x3ebad0a4	0.36487305
47	0xbdc195c4	-0.09452394
48	0xbe5579ed	-0.20847292
49	0x3d62bccc	0.055355832
50	0x3e8bcf75	0.27306715
51	0xbe162c32	-0.14665297
52	0xbea2e892	-0.31818062
53	0xbdcec457	-0.100960426
54	0x3e90c386	0.28274173
55	0x3d7ffd53	0.06249745
56	0xbda045dc	-0.078258246
57	0x3e15e157	0.14636742
58	0x3ebfa5b0	0.37431097
59	0x3e9c74dd	0.3055791
60	0xbe5bad10	-0.21452737
61	0x3d692a38	0.05692503
62	0xbe85af62	-0.2611037
63	0x3e7b03df	0.24513195
64	0x3da7bbb2	0.08190097
65	0xbbaa0260	-0.0051882714
66	0x3db5472d	0.08851466
67	0x3c1b3986	0.009474164
68	0x3b8f4fff	0.00437355
69	0xbda8e28f	-0.082463376
70	0x3e0e845e	0.13917682
71	0x3db7ef58	0.08981198
72	0xbcbfbad7	-0.023404522
73	0xbc7dc83f	-0.015489637
74	0xbe0ef2d6	-0.13959822
75	0x3d905264	0.07046965
76	0x3e8ccb23	0.2749873
77	0xbcabd0b5	-0.020973543
78	0x3bb564d3	0.005535701
79	0xbd92a043	-0.07159474
80	0x3c9d06db	0.019168308
81	0x3ccab80e	0.024745967
82	0xbc9bf920	-0.01903969
83	0xbd9f57d7	-0.07780426
84	0x3cb98796	0.02264766
85	0xbd42e343	-0.047580015
86	0x3d7c00b0	0.061524093
87	0xbc617aed	-0.013762218
88	0x3c3a6a41	0.011377872
89	0x3dbaba38	0.0911755
90	0x3d2e1637	0.042501654
91	0x3d88738c	0.06662664
92	0x3d526573	0.05136628
93	0x3d79503f	0.060867544
94	0xbcb6c66a	-0.022311408
95	0x3bc54103	0.006019713
96	0xbd49a2a8	-0.049227387
97	0x3dbc3ca1	0.091912515
98	0xbcebd84d	-0.028789664
99	0x3d01d7b7	0.031699862
100	0x3c9e57b2	0.019328926
101	0xbde03d3b	-0.10949179
102	0xbe03665e	-0.12832019
103	0x3dc91a81	0.09819508
104	0x3e06d940	0.13168812
105	0x3d0975a4	0.033559456
106	0xbc406c99	-0.011744642
107	0xbe3cc52d	-0.18434592
108	0xbdd4e69a	-0.10395546
109	0x3db74afd	0.0894985
110	0xbe04e176	-0.12976632
111	0x3d2c39df	0.042047378
112	0xbd32761e	-0.043569677
113	0xbe040f64	-0.12896496
114	0x3df872e3	0.12131288
115	0xbd72d416	-0.059284292
116	0x3e46ff03	0.19433217
117	0xbaece826	-0.0018074557
118	0xbc775c52	-0.0150976945
119	0xbccbbe40	-0.024870992
120	0x3d0e48e4	0.034737483
121	0x3dd2c71b	0.102918826
122	0x3dfc5a43	0.123219036
123	0xbd3a7f64	-0.045531645
124	0xbdac37d9	-0.084090896
125	0x3c19d5ae	0.009389324
126	0x3c9d3c5b	0.019193819
127	0xbd362fd3	-0.044479202
128	0xbe0b2162	-0.13586953
129	0x3d2a7e35	0.041624267
130	0xbd1d3762	-0.038382895
131	0x3e803c7f	0.25046155
132	0xbd54a0d2	-0.051911183
133	0x3d471bd9	0.048610542
134	0xbba645a5	-0.0050742202
135	0x398e1b64	0.00027104758
136	0x3e1b73de	0.15180919
137	0x3d8e4419	0.06946582
138	0x3dc383cb	0.09546622
139	0x3d8887b2	0.06666507
140	0x3d82539c	0.063636035
141	0xbce04e19	-0.02738099
142	0xbc1d36cf	-0.009595587
143	0xbcd7b388	-0.026330724
144	0x3c2b821b	0.010468031
145	0xbd2000db	-0.039063316
146	0x3df4335b	0.11923858
147	0x3d314e99	0.043287847
148	0xbcf31d80	-0.029677153
149	0x3d1881bd	0.037233103
150	0xbda7aeb8	-0.08187622
151	0xbdaa2f93	-0.08309855
152	0x3d22feca	0.039793767
153	0x3ca051b3	0.019570207
154	0x3c8a270a	0.016864318
155	0xbd90fc63	-0.07079389
156	0x3d4f4157	0.050599422
157	0x3df2ba69	0.11851961
158	0x3dbd0a27	0.09230452
159	0xbd098c2a	-0.033580936
160	0xbd54c30f	-0.051943835
161	0xbcb19ec0	-0.021682143
162	0x3d8ed0df	0.06973433
163	0xbcd72d05	-0.026266584
164	0xbd846d63	-0.06466176
165	0x3d883183	0.066500686
166	0x3d354cde	0.04426276
167	0x3b62b71c	0.0034594005
168	0x3de66ae9	0.1125086
169	0x3c834174	0.016022421
170	0x3d553d9e	0.052060716
171	0x3db80c9d	0.08986781
172	0xbd8d8792	-0.069106236
173	0x3d693b49	0.056941304
174	0xbc773fef	-0.015090927
175	0xbb58b35c	-0.003306589
176	0x3dacec62	0.08443524
177	0xbdca6fa3	-0.09884574
178	0x3ce16902	0.027515892
179	0xbd57b01c	-0.052658185
180	0x3d005c36	0.03133794
181	0xbcb99001	-0.022651674
182	0xbc6e14fd	-0.014531371
183	0x3dc0cdfc	0.094142884
184	0x3cdf6148	0.027268067
185	0x3d3dd64e	0.046346955
186	0xbd837fed	-0.06420884
187	0x3c97a33a	0.01851045
188	0x3d708f46	0.058730386
189	0xbd8c66b5	-0.06855527
190	0x3dafc465	0.08582381
191	0xbd80e7e6	-0.06294231
192	0xbc9bc8c1	-0.019016625
193	0x3d89e96c	0.06733975
194	0xbd49ce68	-0.04926911
195	0x3c66041d	0.014039067
196	0xbcaccbd1	-0.021093281
197	0xbd8e2a2a	-0.06941636
198	0x3ceb9da6	0.028761696
199	0xbbe78ad2	-0.007066109
200	0x3cb016e6	0.021495294
201	0xbd4cfe1a	-0.050047018
202	0x3c82ff3e	0.01599085
203	0x3db5bbc6	0.088737056
204	0xbd1d5a5f	-0.038416263
205	0xbd589b90	-0.05288273
206	0xbd41cf3b	-0.04731677
207	0xbd65d88e	-0.056114726
208	0xbc4f7910	-0.012663141
209	0xbbd6301d	-0.0065364973
210	0xbd7e410a	-0.062073745
211	0xbd464967	-0.048409846
212	0x3cc256ce	0.023723032
213	0x3d952771	0.072829135
214	0x3dd1e7f1	0.102493174
215	0x3d02fcc6	0.031979345
216	0x3d062052	0.032745667
217	0x3d0d8e72	0.034559675
218	0x3d8d714a	0.06906374
219	0xbda65597	-0.08121794
220	0xbd29ffa7	-0.041503575
221	0xbcee41f2	-0.02908418
222	0xbd15f397	-0.03660926
223	0x3d42097e	0.047372334
224	0x3c9ebc1c	0.019376807
225	0xbd734efe	-0.059401505
226	0x3cbeb6bf	0.0232805
227	0xbc8321e3	-0.01600737
228	0x3db08254	0.08618608
229	0xbc6d163c	-0.014470633
230	0x3d370351	0.044680897
231	0x3db98c20	0.0905993
232	0xbd7d19b3	-0.061792087
233	0x3d8b714b	0.06808718
234	0x3cf8abe1	0.030355396
235	0xbc5421f0	-0.012947544
236	0x3ca64e07	0.020300878
237	0x3d90c727	0.07069235
238	0x3bd1ede5	0.006406533
239	0x3d56bdb4	0.05242701
240	0x3d2a3a30	0.0415594
241	0x3d8fbf0e	0.07018863
242	0x3ca944af	0.020662634
243	0xbc06c4e1	-0.0082256505
244	0xbd6feed4	-0.058577374
245	0x3cdff52b	0.027338585
246	0x3cd325bf	0.025774835
247	0x3d884d0a	0.06655319
248	0xbd3872df	-0.045031425
249	0xbb07ec74	-0.0020740302
250	0xbd7fb110	-0.06242472
251	0xbd9bb459	-0.07602758
252	0x3d7ee09d	0.062225927
253	0xbaaf0a4b	-0.0013354508
254	0x3d20cde3	0.03925885
255	0x3c0dde10	0.008658901

bias f4 [64]
0	0x3f15623b	0.5835301
1	0xbf09d11a	-0.5383469
2	0x3f1526a2	0.58262074
3	0x3ef172ab	0.47157797
4	0xbf18da78	-0.59708357
5	0x3eda966d	0.4269289
6	0xbef66b54	-0.4812876
7	0x3e9a55cd	0.30143586
8	0xbf261cce	-0.648877
9	0x3f023eb8	0.5087695
10	0x3f06df43	0.5268442
11	0x3f0a7ba0	0.54094887
12	0x3ecc2e2b	0.39878973
13	0x3ec84492	0.39114815
14	0xbf05b7f5	-0.5223382
15	0x3f1e5eb0	0.6186323
16	0xbea196cc	-0.3156036
17	0xbef09bdc	-0.4699391
18	0x3f079159	0.5295616
19	0xbf011a32	-0.50430596
20	0x3f17ed9a	0.59346926
21	0x3f1e9986	0.6195301
22	0x3ed8f31d	0.4237298
23	0xbf147a27	-0.5799889
24	0x3eeb1a32	0.45918423
25	0xbe05622c	-0.13025731
26	0x3f0a7a78	0.5409312
27	0xbedc40d6	-0.43018216
28	0xbe23baba	-0.159892
29	0x3f119296	0.568643
30	0xbf093d04	-0.5360873
31	0xbeed3efb	-0.46337113
32	0xbf13e99c	-0.57778335
33	0x3ef58547	0.47953245
34	0x3ee06042	0.4382344
35	0x3f015317	0.5051741
36	0xbf2025e1	-0.625578
37	0x3ea87327	0.32900354
38	0xbeed1e83	-0.4631234
39	0x3f019372	0.5061561
40	0x3ee89f09	0.45433834
41	0x3f0e0180	0.5547104
42	0xbdaaee3b	-0.0834622
43	0xbf131e6c	-0.57468295
44	0xbf24843b	-0.6426427
45	0xbec8d28b	-0.39223132
46	0x3f040ed1	0.5158511
47	0xbf0db8f0	-0.5536032
48	0xbeb3512c	-0.35022867
49	0xbf143bb2	-0.5790359
50	0xbf13444c	-0.5752609
51	0xbf01e6e8	-0.5074296
52	0xbf022dc8	-0.50851107
53	0x3ef6f440	0.48233223
54	0xbf178d80	-0.59200287
55	0x3f016bc1	0.50555044
56	0xbf2ab914	-0.66688657
57	0xbeab9563	-0.3351241
58	0xbeea84e1	-0.45804504
59	0xbf10bfec	-0.5654285
60	0x3f0ad0cf	0.54224867
61	0x3ecfa374	0.40554392
62	0x3ec23615	0.37931886
63	0x3eb31cd4	0.34982932

weight f4 [1, 64]
0	0xbeb30fb1	-0.3497291
1	0x3e92a3ab	0.28640494
2	0xbeb2f794	-0.34954512
3	0xbeec1f9b	-0.46117863
4	0x3ebc4d39	0.36777666
5	0xbeccd438	-0.4000566
6	0x3eda57d3	0.4264513
7	0xbf27332f	-0.65312475
8	0x3eaa766d	0.33293477
9	0xbed092bc	-0.4073695
10	0xbec503d2	-0.38479477
11	0xbec39883	-0.38202295
12	0xbe414c91	-0.18876864
13	0xbebb26c4	-0.36553013
14	0x3e97f681	0.29680255
15	0xbe9c55f1	-0.30534318
16	0x3dc83f0f	0.097776525
17	0x3ee77d16	0.4521262
18	0xbec6ff92	-0.3886686
19	0x3eafbe04	0.34324658
20	0xbe596fc9	-0.21234049
21	0xbe6f2d60	-0.23357153
22	0xbed65ec6	-0.4186918
23	0x3e873e1a	0.26414567
24	0xbed66ed5	-0.41881433
25	0x3e0f4571	0.13991334
26	0xbeacb06d	-0.33728352
27	0x3ef3a7e4	0.47589028
28	0x3d46c32b	0.04852597
29	0xbec774f9	-0.3895643
30	0x3e9e74db	0.3094853
31	0x3ec05beb	0.37570128
32	0x3e5dc10d	0.21655674
33	0xbed2d377	-0.4117696
34	0xbecaa781	-0.3958092
35	0xbea21a3d	-0.31660643
36	0x3e8601cf	0.26173255
37	0xbe1eddd8	-0.15514314
38	0x3ed24911	0.4107137
39	0xbece32e0	-0.4027319
40	0xbebbc282	-0.36671835
41	0xbe992a80	-0.29915237
42	0x3c6ce271	0.014458285
43	0x3e8bef55	0.27331033
44	0x3e876493	0.2644392
45	0x3ef930a4	0.48669922
46	0xbe9c5fd1	-0.30541852
47	0x3ec69e0a	0.3879245
48	0x3f055377	0.5208048
49	0x3eaef74b	0.34173045
50	0x3ebd3857	0.36957046
51	0x3edde9c9	0.43342426
52	0x3e9edc1c	0.31027305
53	0xbee7e85b	-0.4529446
54	0x3e8c0f9a	0.27355653
55	0xbeada51d	-0.33915034
56	0x3ea3b7b4	0.31976092
57	0x3ec7480e	0.3892216
58	0x3ef4377c	0.4769858
59	0x3e8c04cb	0.27347407
60	0xbe92d398	-0.28677058
61	0xbec60d2c	-0.38681924
62	0xbda9fe8d	-0.08300505
63	0xbddeea1c	-0.108844966

weight f4 [64, 207]
0	0xbd3421a3	-0.04397739
1	0x3d836dec	0.0641745
2	0x3ccc9c4c	0.024976872
3	0x3c767a36	0.015043786
4	0xbc846063	-0.016159242
5	0xbc90686d	-0.01762792
6	0x3c93e7d5	0.018054882
7	0xbd0d846f	-0.034550127
8	0x3c8ab8b7	0.016933782
9	0x3ca5a9c7	0.020222558
10	0xbd7d2381	-0.061801437
11	0x3d88fa90	0.06688416
12	0x3d421348	0.04738167
13	0xbcb34d80	-0.02188754
14	0x3d369504	0.044575706
15	0xbd7aca88	-0.061228305
16	0x3cc98fb5	0.024604658
17	0x3d965b6c	0.07341656
18	0xbb64c72d	-0.0034908757
19	0xbc51922c	-0.012791198
20	0x3d157bb0	0.03649491
21	0x3d893f59	0.06701536
22	0x3d246ae7	0.040141013
23	0xbca61eb5	-0.020278314
24	0xbc924675	-0.017855862
25	0x3d4b54b0	0.04964131
26	0x3d4a4d44	0.049390092
27	0xbca67937	-0.020321472
28	0x3d458bf7	0.048229184
29	0x3d490a23	0.049081933
30	0x3d8370c2	0.06417991
31	0x3c19c004	0.009384159
32	0x3cc64b9d	0.024205977
33	0x3bd37470	0.0064530894
34	0x3d943dd2	0.07238354
35	0xbd37dc95	-0.044888098
36	0xbd48bc8f	-0.04900795
37	0xba3c34e1	-0.00071795104
38	0x3d0cbbd3	0.03435881
39	0xbd813253	-0.06308427
40	0x3ce3d909	0.027813451
41	0x3b4ae4fa	0.0030959235
42	0x3daf109b	0.08548089
43	0x3d40e96e	0.047097616
44	0xbd2c9302	-0.042132385
45	0x3d950871	0.07277001
46	0x3d255a74	0.040369466
47	0xbda9ee4f	-0.08297407
48	0x3bd3a159	0.006458443
49	0x3d33df74	0.043914273
50	0x3d1830fc	0.03715609
51	0x3c25d05d	0.010120478
52	0xbd2d7547	-0.042348173
53	0x3c5151df	0.012775867
54	0x3d167acb	0.0367382
55	0xbd510cef	-0.051037725
56	0x3c9d0a7d	0.01917004
57	0xbc6f6875	-0.014612307
58	0xbca895af	-0.020579187
59	0x3ca8a9f7	0.020588858
60	0x3be072b8	0.006849613
61	0xbbd9fcc0	-0.0066524446
62	0xbc385f83	-0.0112532405
63	0xbc8f9d8f	-0.017531184
64	0xbd1c0d87	-0.03809884
65	0x3aa94efe	0.0012917218
66	0x3cbf2e8c	0.023337625
67	0x3da69c2a	0.08135255
68	0xbd8b33b9	-0.06796975
69	0xbcabbeb0	-0.02096495
70	0xbd147815	-0.03624733
71	0xbd9ed0ea	-0.07754691
72	0xbd95f235	-0.07321588
73	0xbc9ca2d3	-0.01912061
74	0x3cd29236	0.025704484
75	0x3ce02676	0.02736209
76	0xbd0172ae	-0.031603508
77	0xbbf01978	-0.007327255
78	0x3d82db1d	0.06389449
79	0xbd9d7e9b	-0.07690164
80	0x3d8ca1cf	0.068668
81	0xbc438550	-0.01193364
82	0x3c3c0a53	0.011477071
83	0x3c614c52	0.013751106
84	0x3c040a45	0.008059089
85	0x3ce64c9a	0.028112698
86	0x3daa6bad	0.08321319
87	0xbd6ceb49	-0.057841573
88	0xbcc4684e	-0.023975518
89	0xbc870226	-0.016480517
90	0x3dafeec0	0.0859046
91	0x3d7b3361	0.061328296
92	0x3c98971e	0.018626746
93	0xbbc5c2f5	-0.0060352036
94	0xbd208cfd	-0.039196957
95	0xbbd3221d	-0.0064432756
96	0x3d70fe4b	0.058836263
97	0xba4cda45	-0.0007814507
98	0x3dab7eaf	0.08373772
99	0x3d3e9176	0.04652544
100	0x3c694282	0.014237048
101	0xbc7bdd66	-0.01537261
102	0xbd6a70a5	-0.057236332
103	0xbd55cae4	-0.052195445
104	0x3bbdf526	0.0057970462
105	0xbb932afa	-0.004491207
106	0xbaa26429	-0.0012389469
107	0x3d713267	0.058885958
108	0x3c97fee0	0.018554151
109	0xbd25bd75	-0.040463883
110	0xbdc7600a	-0.09735115
111	0x3d4611ea	0.048356928
112	0x3d0bc61b	0.034124475
113	0x3c679fab	0.014137189
114	0x3bc2b25c	0.0059416723
115	0x3a82c656	0.0009977322
116	0xbb8544d3	-0.0040670424
117	0xbd86ad67	-0.065760426
118	0x3c0a4e93	0.008441585
119	0x3d70a9bd	0.058755625
120	0xbd76bbca	-0.060237683
121	0xbbe8555e	-0.0070902547
122	0x3d0da905	0.034585018
123	0xbd9f60ec	-0.07782158
124	0xbb084bb4	-0.0020797076
125	0x3d396eb5	0.045271594
126	0x3c7a37cb	0.015272091
127	0x3d70bfc0	0.058776617
128	0xbba21bf3	-0.0049471795
129	0xbd2578c9	-0.040398393
130	0x3d3ab798	0.045585245
131	0x3d115fae	0.035491638
132	0xbd61b652	-0.055105515
133	0xbd428de3	-0.047498595
134	0xbcd0664c	-0.025439404
135	0xbc17e31e	-0.009270458
136	0xbd540e26	-0.051771306
137	0x3d0eeef4	0.034895852
138	0xbd33ee4c	-0.04392843
139	0xbd55396e	-0.052056722
140	0xbd51957d	-0.051167954
141	0xbd59e227	-0.05319419
142	0x3bf2160b	0.0073878816
143	0xbcc080e0	-0.023498952
144	0x3d613a8d	0.05498748
145	0x3c7d1fe1	0.015449495
146	0xbd75c684	-0.060003772
147	0x3d054c95	0.032543737
148	0xbd340d45	-0.043957967
149	0x3d00ce05	0.031446476
150	0x3c8e1345	0.017343173
151	0x3d21bd7b	0.039487343
152	0xbd56fc75	-0.052486856
153	0x3d32b2c9	0.043627534
154	0x3d70c3e0	0.05878055
155	0x3d213e41	0.03936601
156	0x3cf4d6e6	0.029887628
157	0x3d88d173	0.06680574
158	0x3c897dcf	0.016783623
159	0x3d7c4e09	0.061597858
160	0xbcfb4610	-0.030673057
161	0xb9a133a6	-0.00030746794
162	0x3d4cba2b	0.04998223
163	0x3b9d918e	0.0048086112
164	0xbd15bfb7	-0.036559787
165	0xbc845a64	-0.016156383
166	0x3c743c98	0.014907025
167	0xbb0068ec	-0.0019593788
168	0x3c81ec19	0.01585965
169	0x3d8980ec	0.06714043
170	0xbd572c4b	-0.052532475
171	0xbd2b23c0	-0.04178214
172	0x3d28d306	0.041216873
173	0xbd2a555a	-0.041585304
174	0x3d82dbbe	0.06389569
175	0x3d0e2c06	0.034709953
176	0x3d9c1f96	0.07623212
177	0x3cf3d294	0.029763497
178	0x3c0e65d4	0.00869127
179	0xbd21d7f7	-0.0395126
180	0xbb1214fe	-0.0022290344
181	0xbd1af3ed	-0.037830282
182	0x3d602857	0.05472597
183	0xbc03e3b2	-0.008049892
184	0x3d48d0da	0.0490273
185	0x3d8d1f7b	0.0689077
186	0x3d26a500	0.0406847
187	0x3d083bf9	0.03326032
188	0x3d1d078f	0.038337287
189	0xbd52158f	-0.05129009
190	0xbd83b0c3	-0.06430199
191	0x3d40a345	0.047030706
192	0xbd260b30	-0.040538013
193	0x3d1aa570	0.03775543
194	0xbd789329	-0.060687218
195	0x3c85bfd0	0.016326815
196	0x3d166256	0.036714874
197	0x3c9dc89f	0.019260703
198	0x3c193ba6	0.0093526
199	0xbc9d3c4c	-0.01919379
200	0xbd8410b7	-0.064485006
201	0xbcae4b0b	-0.021276018
202	0xbd4ed938	-0.050500125
203	0x3d8f6805	0.07002262
204	0x3d6ce14a	0.05783204
205	0x3ce6ae4d	0.028159285
206	0xbdac4240	-0.08411074
207	0x3c7da70f	0.015481724
208	0x3b41cf77	0.0029573122
209	0x3de60449	0.11231286
210	0x3ddab232	0.10678519
211	0x3cd1f4e9	0.025629478
212	0xbca15e9a	-0.01969843
213	0x3c914ff5	0.017738322
214	0xbd0f7f45	-0.035033483
215	0xbd99f251	-0.07516921
216	0x3d46f8e6	0.04857721
217	0xbd41eebc	-0.047346815
218	0xbc59aaaa	-0.013285318
219	0xbd8ec5b4	-0.06971303
220	0xbda0daf3	-0.07854261
221	0xbd50dba2	-0.05099071
222	0xbcd93e4e	-0.026518967
223	0x3ce86508	0.028368488
224	0xbdd2e4ba	-0.102975324
225	0xbd84e654	-0.06489244
226	0xbcb80d64	-0.022467323
227	0x3bbfa16e	0.0058481013
228	0x3d0e30a9	0.034714375
229	0x3bdbe80c	0.0067110118
230	0x3aab6ba6	0.0013078346
231	0xbda5e9ca	-0.08101232
232	0xbd72a69d	-0.059240926
233	0xbd3d1fe1	-0.04617298
234	0x3d2d9f90	0.0423885
235	0xbdac8283	-0.08423331
236	0xbd9a52f6	-0.07535355
237	0xbe00f241	-0.12592413
238	0xbd53d3b7	-0.05171558
239	0x3d89c8bc	0.0672774
240	0xbd833dae	-0.06408249
241	0x3bc6d0c3	0.006067367
242	0x3b0d4756	0.0021557412
243	0xbc232900	-0.009958506
244	0xbcfb979b	-0.03071194
245	0x3db7840a	0.08960731
246	0xbca63606	-0.020289432
247	0xbc5432f1	-0.0129515985
248	0xbc5a1c95	-0.013312479
249	0xbce39378	-0.02778028
250	0x3c77895b	0.015108432
251	0x3d493d9c	0.04913102
252	0xbd2f196f	-0.042748865
253	0x3c819557	0.015818281
254	0xbd98c3c5	-0.07459215
255	0xbc609644	-0.013707701

bias f4 [64]
0	0xbd70517a	-0.058671452
1	0xbc81ce88	-0.015845552
2	0xbd5afc97	-0.053463545
3	0xb999fc47	-0.00029370395
4	0x3da8e787	0.08247285
5	0xbbb00285	-0.005371394
6	0xbd2163e9	-0.039401922
7	0x3d843154	0.06454721
8	0xbd2129b2	-0.039346404
9	0xbd71307a	-0.05888412
10	0xbca32597	-0.019915385
11	0x3ba64c10	0.0050749853
12	0x3d8fdd0c	0.07024583
13	0x3c8035b4	0.015650608
14	0xbc973809	-0.018459337
15	0x3d8af5ba	0.0678515
16	0x3dca3fcb	0.09875449
17	0xbce93d13	-0.028471505
18	0xbdcc53e9	-0.09976942
19	0xbd6b2397	-0.057406988
20	0x3cbd237e	0.023088213
21	0x3d37897f	0.04480886
22	0x3d846e24	0.0646632
23	0xbb15da6c	-0.0022865785
24	0xbc323e51	-0.010879115
25	0xbdb2fbea	-0.08739455
26	0x3d2c7a3f	0.04210877
27	0x3da6749e	0.08127712
28	0x3d1c7ca1	0.038204793
29	0x3d298d70	0.04139465
30	0x3b7036eb	0.0036653827
31	0x3c022743	0.007943931
32	0x3db028c1	0.08601523
33	0x3c99b010	0.018760711
34	0x3ca59f0d	0.020217443
35	0x3cecf827	0.028926922
36	0x3d575689	0.05257276
37	0x3d1de0fd	0.038544644
38	0xbda4a44b	-0.08039149
39	0xbbefed4f	-0.0073219906
40	0xbd0e7380	-0.034778118
41	0xbd87d491	-0.06632341
42	0xbd58a71f	-0.052893754
43	0xbd1b5a38	-0.037927836
44	0x3ce35a48	0.02775301
45	0xba3548d0	-0.0006915452
46	0x3d5d00fe	0.053956024
47	0xbd0eefb8	-0.034896582
48	0x3d91accb	0.07113036
49	0xbdc7e076	-0.097596094
50	0x3d078cc7	0.03309324
51	0xbdd4fbea	-0.10399611
52	0xbb370348	-0.002792554
53	0x3d49e36b	0.04928915
54	0xbb1c3eb4	-0.0023841085
55	0x3d8fe9fa	0.07027049
56	0x3b5e075c	0.0033878898
57	0xbab1b37a	-0.0013557517
58	0xbacbf878	-0.001556172
59	0x3c6a9258	0.014317118
60	0xbce87a02	-0.02837849
61	0xbca3aaab	-0.019978842
62	0x3d82dac6	0.06389384
63	0xbdd7c466	-0.10535507

weight f4 [64, 64]
0	0xbd3446e3	-0.044012915
1	0xbd738da0	-0.059461236
2	0xbcb10faa	-0.021613915
3	0x3d9af388	0.07565981
4	0x3dbff863	0.09373548
5	0xbe140537	-0.14455114
6	0xbb626c36	-0.0034549362
7	0x3e02a51d	0.12758298
8	0x3da3bb09	0.079946585
9	0x3d2b8808	0.041877776
10	0x3cbfd413	0.023416555
11	0xbd57b22b	-0.05266015
12	0x3b81c9d5	0.003960828
13	0xbdf9989f	-0.12187313
14	0x3ce434fc	0.027857296
15	0x3e269f32	0.16271666
16	0x3def0ea1	0.11672712
17	0xbcb58a4f	-0.022160677
18	0x3e1cb34b	0.1530277
19	0x3de1499f	0.1100037
20	0xbd53e361	-0.051730517
21	0xbd5cd725	-0.053916115
22	0x3a7e17cc	0.0009692877
23	0xbdc20f3d	-0.09475563
24	0xbe134a33	-0.14383774
25	0x3d95f977	0.07322972
26	0xbddf9168	-0.10916406
27	0xbe0342fd	-0.12818523
28	0xbc9b18c7	-0.018932713
29	0xbdc0d42b	-0.09415468
30	0x3dc77394	0.09738842
31	0xbd934133	-0.0719017
32	0x3e00644a	0.12538257
33	0xbcefba76	-0.029263716
34	0xbdeb35f2	-0.114848986
35	0xbda79d9d	-0.08184359
36	0x3d84d552	0.06486
37	0x3d8887e6	0.066665456
38	0xbd202c26	-0.039104603
39	0x3bbb7187	0.0057203206
40	0x3e3a0cfa	0.18169013
41	0x3e855fad	0.26049557
42	0x3da094f8	0.078409135
43	0xbd820dd1	-0.063502915
44	0x3da99f77	0.08282369
45	0xbda99928	-0.08281165
46	0x3d27a406	0.04092791
47	0xbd9fe0e0	-0.078065634
48	0xbcf55920	-0.029949725
49	0x3e3d08c8	0.18460381
50	0x3cab6d0a	0.020926017
51	0xbac17035	-0.0014758172
52	0x3e80e43c	0.2517413
53	0x3ddd858e	0.10816489
54	0x3e03fc37	0.12889181
55	0xbe6961fd	-0.22791286
56	0x3e1196e6	0.1421772
57	0x3de17105	0.11007885
58	0xbe19bc39	-0.15013207
59	0x3d375d2f	0.0447666
60	0x3c004b24	0.007830415
61	0xbd466405	-0.04843523
62	0xbdc7b5fb	-0.09751507
63	0x3e2a2966	0.16617355
64	0x3dbbe5a2	0.09174658
65	0xbdd1d88f	-0.102463834
66	0xbda3cc52	-0.079979554
67	0xbc264e7e	-0.01015055
68	0xbda80077	-0.08203214
69	0x3c981e23	0.018569058
70	0xbdb461c9	-0.088077135
71	0x3e098400	0.1342926
72	0x3c86dd04	0.01646281
73	0xbcdff085	-0.027336368
74	0x3d6c5a1a	0.057703115
75	0x3da20ebf	0.07912969
76	0x3deadd27	0.11467963
77	0xbd1ffc6c	-0.039059088
78	0x3e5614eb	0.20906417
79	0x3dfaa0c7	0.12237697
80	0xbd2a4925	-0.041573662
81	0xbd2b8535	-0.041875083
82	0xbd0341c3	-0.032045137
83	0x3d9b24ef	0.07575404
84	0x3d75f43e	0.06004738
85	0xbe47600a	-0.1947023
86	0x3e231575	0.15926154
87	0xbdbfd00d	-0.093658544
88	0xbda6cd0a	-0.08144577
89	0x3e26f03a	0.16302577
90	0xbd85c5b4	-0.065318495
91	0x3e045929	0.12924637
92	0xbdab78f6	-0.08372681
93	0x3e13caf3	0.14432888
94	0xbe10a8c6	-0.14126882
95	0x3dbc43cc	0.09192619
96	0x3d089153	0.033341717
97	0xbdc007c6	-0.09376483
98	0xbce3a994	-0.027790822
99	0xbd396b1c	-0.045268163
100	0x3cec2b5d	0.028829271
101	0xbd4fc3ec	-0.050723955
102	0x3c97acbc	0.018514983
103	0x3ca3b834	0.019985296
104	0xbc144bf4	-0.009051312
105	0xbe8995f4	-0.26872218
106	0x3e397e98	0.18114698
107	0xbdda3eba	-0.106564954
108	0x3c97e965	0.018543908
109	0xbd17ee02	-0.037092216
110	0x3def2e23	0.11678722
111	0xbd3df04e	-0.04637175
112	0xbd9a0a5e	-0.07521509
113	0x3e1a9d04	0.15098959
114	0x3d0adb15	0.03390034
115	0xbdc4b9ff	-0.096057884
116	0x3c6d67b3	0.014490056
117	0xbdb3b5b3	-0.08774891
118	0xbba6da56	-0.0050919456
119	0x3da3b91e	0.07994293
120	0x3db53813	0.08848586
121	0x3d86fe8f	0.06591522
122	0x3d96b6a2	0.07359053
123	0xbd525f75	-0.051360566
124	0x3e51011b	0.20410578
125	0x3d0353ab	0.032062214
126	0x3b18b079	0.0023298545
127	0x3c5b52fa	0.013386482
128	0xbc98ce14	-0.018652953
129	0x3e09f492	0.13472202
130	0xbddb9de0	-0.10723472
131	0xbe0a43da	-0.13502446
132	0x3d76bacc	0.060236737
133	0x3df74dad	0.12075362
134	0x3d830481	0.063973434
135	0xbdfacd5c	-0.122462004
136	0x3c47962f	0.012181803
137	0xbd2e2121	-0.042512063
138	0x3dffb750	0.12486136
139	0x3d91337b	0.07089897
140	0x3d28c71a	0.041205503
141	0x3d6bacca	0.05753783
142	0x3cf321de	0.029679235
143	0x3d52897f	0.051400658
144	0x3ccc064a	0.024905343
145	0x3cedc799	0.02902584
146	0xbd316c3e	-0.04331612
147	0x3d83de3d	0.06438873
148	0x3bd1dede	0.0064047417
149	0xbd23bdeb	-0.03997604
150	0x3a8ac227	0.0010586426
151	0xbd9019a8	-0.070361435
152	0x3e103e10	0.14086175
153	0xbd9cff11	-0.076658376
154	0x3daddcad	0.08489356
155	0xbe4ea5a5	-0.20180376
156	0xbb84317c	-0.0040342193
157	0xbdb59bf3	-0.088676356
158	0xbcfdc32b	-0.030976852
159	0xbd68679b	-0.05673943
160	0x3d1f8d8e	0.038953356
161	0xbd1dc3f6	-0.03851696
162	0x3d163eb0	0.036680877
163	0xbd52e05e	-0.051483504
164	0x3c303773	0.010755408
165	0xbe67f5b3	-0.2265232
166	0x3cddab13	0.027059114
167	0x3d91f098	0.07125968
168	0xbda96cf7	-0.082727365
169	0xbe88124f	-0.26576468
170	0x3bbd578b	0.005778258
171	0x3c8b57ca	0.017009635
172	0xbe0b1580	-0.1358242
173	0xbd9f924d	-0.077915765
174	0xbe00d94a	-0.12582889
175	0xbd90cc88	-0.07070261
176	0xbd6ce529	-0.05783573
177	0xbe032495	-0.12806924
178	0xbde35f39	-0.11102147
179	0x3deb1deb	0.11480316
180	0xbca10890	-0.019657403
181	0xbd8b38be	-0.06797932
182	0xbddd8a36	-0.10817377
183	0x3e8482d1	0.25881055
184	0xbdcec42a	-0.10096009
185	0xbe314140	-0.17310047
186	0x3d9ee80a	0.07759102
187	0xbd3716f9	-0.044699643
188	0x3e247923	0.16061835
189	0xbd7f0486	-0.062260173
190	0x3cd21be9	0.025648074
191	0xbe5b1369	-0.21394123
192	0xbe8618b0	-0.2619071
193	0x3d0c0d5d	0.03419243
194	0xbe0431e8	-0.12909663
195	0xbd10e57e	-0.03537511
196	0xbd4e3003	-0.050338756
197	0xbd9ab3a2	-0.075537935
198	0x3de7a4b2	0.1131071
199	0xbe00c1eb	-0.12573974
200	0xbe554ff9	-0.20831288
201	0x3dd0214b	0.101626
202	0x3e5c204e	0.21496698
203	0x3dddc740	0.108290195
204	0x3c26085c	0.010133829
205	0xbd223014	-0.039596632
206	0x3d96740e	0.073463544
207	0x3dad49f4	0.08461371
208	0xbd719b0f	-0.058985766
209	0xbcccd9cf	-0.025006203
210	0x3b90f191	0.004423328
211	0xbd262496	-0.040562235
212	0x3d84bd1c	0.06481382
213	0x3e247b62	0.16062692
214	0xbd2c3310	-0.042040884
215	0x3b9c3237	0.0047667283
216	0x3d99fd00	0.07518959
217	0xbd0aae2e	-0.033857517
218	0xbd05ec13	-0.03269584
219	0xbdd356d6	-0.10319297
220	0x3e07b8b9	0.1325406
221	0x3d4f6bd0	0.050639927
222	0xbd8ed670	-0.069744945
223	0xbd39c2b0	-0.045351684
224	0xbc63b631	-0.013898418
225	0x3c1d2287	0.0095907515
226	0x3daa66fa	0.083204225
227	0xbd1c194c	-0.038110062
228	0x3dbd9390	0.09256661
229	0x3c4dd2df	0.012562483
230	0x3d3d3751	0.046195332
231	0x3dffbf84	0.124877006
232	0xbe37c469	-0.17946018
233	0xbe99d446	-0.30044764
234	0xbe037f49	-0.12841524
235	0xbc0ce9db	-0.008600677
236	0xbe27e5f2	-0.16396311
237	0x3dbc7a65	0.092030324
238	0x3dc8acd7	0.097985916
239	0xbdc5babc	-0.096547574
240	0x3d597ed6	0.053099476
241	0xbcb23991	-0.021755965
242	0xbbd8c994	-0.006615827
243	0xbd86e1bb	-0.065860234
244	0xbdaa4508	-0.08313948
245	0xbe05f89a	-0.13083115
246	0x3dbcdf66	0.09222297
247	0xbd99e023	-0.07513454
248	0xbe228b64	-0.15873486
249	0x3c497c84	0.012297753
250	0x3c88bcc5	0.016691575
251	0xbd1d5c73	-0.038418245
252	0x3d794ff3	0.06086726
253	0x3c5ded66	0.01354537
254	0xbd43ba73	-0.047785234
255	0x3e23d00b	0.15997331

bias f4 [64]
0	0x3c3d5e9b	0.0115582
1	0x3e0c67ca	0.13711467
2	0xbd56829f	-0.052370664
3	0xbd94a1bf	-0.07257413
4	0x3be64743	0.007027538
5	0x3d6758a1	0.056481007
6	0xbd45dbac	-0.0483052
7	0xbd2d9e33	-0.0423872
8	0x3d9d8249	0.076908655
9	0x3dd68ffd	0.10476682
10	0xbdf00e1a	-0.1172144
11	0xbddad065	-0.10684279
12	0xbd900506	-0.07032208
13	0xbcce1838	-0.025158033
14	0xb9cbc92b	-0.0003886906
15	0x3d9d82d4	0.07690969
16	0x3c75de3f	0.015006601
17	0xbd9f8032	-0.07788123
18	0x3d3bbacf	0.04583245
19	0x3d8d92ee	0.0691279
20	0xbd689909	-0.05678657
21	0xbd696370	-0.056979597
22	0xbdea0054	-0.11425844
23	0xbd10f672	-0.03539128
24	0xbc59962b	-0.013280432
25	0xbd2d8b7c	-0.04236935
26	0xbd31bce7	-0.043393042
27	0xbc23ab13	-0.009989518
28	0xbdee7da7	-0.1164506
29	0x3d386a88	0.04502347
30	0x3d3bbc92	0.04583413
31	0xbda5c48f	-0.08094131
32	0x3d3de036	0.046356402
33	0x3d2a82eb	0.04162876
34	0x3d60a6ab	0.054846447
35	0x3d7e01c8	0.062013417
36	0xbdcc0c45	-0.09963278
37	0xbba9190a	-0.0051604556
38	0x3de11c9a	0.109917834
39	0xbd8d950c	-0.06913194
40	0xbd06a1b8	-0.03286907
41	0xbdd5e39a	-0.10443802
42	0xbd46c22e	-0.048525028
43	0xbdba74c9	-0.09104306
44	0x3b662547	0.0035117434
45	0x3d7cc42e	0.06171053
46	0xbdc9cb6b	-0.09853252
47	0xbd8ed209	-0.06973655
48	0xbdb5c9da	-0.08876391
49	0x3d213b31	0.03936309
50	0xbc9f0292	-0.019410405
51	0xbd1e0570	-0.038579404
52	0xbabbaf83	-0.0014319274
53	0x3db91250	0.09036696
54	0x3d237325	0.039904732
55	0xbd2ce102	-0.04220677
56	0xbd107853	-0.035271
57	0x3dce5abe	0.100759014
58	0x3c701605	0.014653687
59	0x3d7b3fb5	0.061340053
60	0x3bb373c4	0.005476447
61	0xbe0ca4ef	-0.13734792
62	0xbd82767f	-0.063702576
63	0x3d2202da	0.0395535
